…
2021-03-16 19:13:31.341965: I tensorflow/core/common_runtime/gpu/gpu_device.cc:1402] Created TensorFlow device (/job:localhost/replica:0/task:0/device:GPU:0 with 10068 MB memory) -> physical GPU (device: 0, name: GeForce RTX 2080 Ti, pci bus id: 0000:04:00.0, compute capability: 7.5)
The inputs are normalized to have a unit Gaussian distribution
Model: "CNN-POD"
_________________________________________________________________
Layer (type)                 Output Shape              Param #   
=================================================================
high-res-input (InputLayer)  [(None, 2, 34, 17)]       0         
_________________________________________________________________
predic_01 (Conv2D)           (None, 128, 34, 17)       6528      
_________________________________________________________________
predic_02 (BatchNormalizatio (None, 128, 34, 17)       512       
_________________________________________________________________
predic_03 (MaxPooling2D)     (None, 128, 8, 8)         0         
_________________________________________________________________
predic_04 (Conv2D)           (None, 256, 8, 8)         295168    
_________________________________________________________________
predic_05 (BatchNormalizatio (None, 256, 8, 8)         1024      
_________________________________________________________________
predic_06 (MaxPooling2D)     (None, 256, 4, 4)         0         
_________________________________________________________________
predic_07 (Conv2D)           (None, 256, 4, 4)         590080    
_________________________________________________________________
predic_08 (BatchNormalizatio (None, 256, 4, 4)         1024      
_________________________________________________________________
predic_09 (MaxPooling2D)     (None, 256, 2, 2)         0         
_________________________________________________________________
predic_10 (Conv2D)           (None, 512, 2, 2)         1180160   
_________________________________________________________________
predic_11 (BatchNormalizatio (None, 512, 2, 2)         2048      
_________________________________________________________________
predic_12 (MaxPooling2D)     (None, 512, 1, 1)         0         
_________________________________________________________________
predic_13 (Conv2D)           (None, 512, 1, 1)         2359808   
_________________________________________________________________
flatten (Flatten)            (None, 512)               0         
_________________________________________________________________
dense (Dense)                (None, 1024)              525312    
_________________________________________________________________
dense_1 (Dense)              (None, 1)                 1025      
=================================================================
Total params: 4,962,689
Trainable params: 4,960,385
Non-trainable params: 2,304
_________________________________________________________________
None
2021-03-16 19:13:33.770531: I tensorflow/stream_executor/platform/default/dso_loader.cc:48] Successfully opened dynamic library libcublas.so.10
2021-03-16 19:13:34.144592: I tensorflow/stream_executor/platform/default/dso_loader.cc:48] Successfully opened dynamic library libcudnn.so.7
…
