…
2021-02-17 14:01:05.632248: I tensorflow/core/common_runtime/gpu/gpu_device.cc:1402] Created TensorFlow device (/job:localhost/replica:0/task:0/device:GPU:0 with 10068 MB memory) -> physical GPU (device: 0, name: GeForce RTX 2080 Ti, pci bus id: 0000:04:00.0, compute capability: 7.5)
The inputs are normalized to have a unit Gaussian distribution
Model: "CNN-POD"
_________________________________________________________________
Layer (type)                 Output Shape              Param #   
=================================================================
high-res-input (InputLayer)  [(None, 3, 12, 12)]       0         
_________________________________________________________________
predic_01 (Conv2D)           (None, 128, 12, 12)       9728      
_________________________________________________________________
predic_02 (BatchNormalizatio (None, 128, 12, 12)       512       
_________________________________________________________________
predic_04 (Conv2D)           (None, 256, 12, 12)       295168    
_________________________________________________________________
predic_05 (BatchNormalizatio (None, 256, 12, 12)       1024      
_________________________________________________________________
predic_07 (Conv2D)           (None, 256, 12, 12)       590080    
_________________________________________________________________
predic_08 (BatchNormalizatio (None, 256, 12, 12)       1024      
_________________________________________________________________
predic_10 (Conv2D)           (None, 512, 12, 12)       1180160   
_________________________________________________________________
predic_11 (BatchNormalizatio (None, 512, 12, 12)       2048      
_________________________________________________________________
predic_13 (Conv2D)           (None, 512, 12, 12)       2359808   
_________________________________________________________________
predic_14 (BatchNormalizatio (None, 512, 12, 12)       2048      
_________________________________________________________________
predic_15 (Conv2D)           (None, 64, 12, 12)        294976    
=================================================================
Total params: 4,736,576
Trainable params: 4,733,248
Non-trainable params: 3,328
_________________________________________________________________
None
2021-02-17 14:01:27.431301: I tensorflow/core/kernels/data/shuffle_dataset_op.cc:172] Filling up shuffle buffer (this may take a while): 1860 of 4200
2021-02-17 14:01:37.379496: I tensorflow/core/kernels/data/shuffle_dataset_op.cc:172] Filling up shuffle buffer (this may take a while): 3755 of 4200
…
