…
2021-02-16 22:33:30.820803: I tensorflow/core/common_runtime/gpu/gpu_device.cc:1402] Created TensorFlow device (/job:localhost/replica:0/task:0/device:GPU:0 with 10068 MB memory) -> physical GPU (device: 0, name: GeForce RTX 2080 Ti, pci bus id: 0000:04:00.0, compute capability: 7.5)
The inputs are normalized to have a unit Gaussian distribution
Model: "CNN-POD"
_________________________________________________________________
Layer (type)                 Output Shape              Param #   
=================================================================
high-res-input (InputLayer)  [(None, 3, 12, 12)]       0         
_________________________________________________________________
predic_01 (Conv2D)           (None, 128, 12, 12)       9728      
_________________________________________________________________
predic_02 (BatchNormalizatio (None, 128, 12, 12)       512       
_________________________________________________________________
predic_04 (Conv2D)           (None, 128, 12, 12)       147584    
_________________________________________________________________
predic_05 (BatchNormalizatio (None, 128, 12, 12)       512       
_________________________________________________________________
predic_07 (Conv2D)           (None, 128, 12, 12)       147584    
_________________________________________________________________
predic_08 (BatchNormalizatio (None, 128, 12, 12)       512       
_________________________________________________________________
predic_10 (Conv2D)           (None, 256, 12, 12)       295168    
_________________________________________________________________
predic_11 (BatchNormalizatio (None, 256, 12, 12)       1024      
_________________________________________________________________
predic_13 (Conv2D)           (None, 256, 12, 12)       590080    
_________________________________________________________________
predic_14 (BatchNormalizatio (None, 256, 12, 12)       1024      
_________________________________________________________________
predic_15 (Conv2D)           (None, 64, 12, 12)        147520    
=================================================================
Total params: 1,341,248
Trainable params: 1,339,456
Non-trainable params: 1,792
_________________________________________________________________
None
2021-02-16 22:33:44.665205: I tensorflow/stream_executor/platform/default/dso_loader.cc:48] Successfully opened dynamic library libcudnn.so.7
2021-02-16 22:33:49.882324: I tensorflow/stream_executor/platform/default/dso_loader.cc:48] Successfully opened dynamic library libcublas.so.10
…
